…
I0321 02:56:55.619243  8987 net.cpp:51] Initializing net from parameters: 
state {
  phase: TRAIN
  level: 0
  stage: ""
}
layer {
  name: "data"
  type: "Data"
  top: "data"
  top: "label"
  include {
    phase: TRAIN
  }
  transform_param {
    mirror: true
    crop_size: 227
    mean_file: "/home/ngani/Desktop/SYS866/Plant Classification/Experiment 1/dataset_plantVillage/lmdb/color-20-80/mean.binaryproto"
  }
  data_param {
    source: "/home/ngani/Desktop/SYS866/Plant Classification/Experiment 1/dataset_plantVillage/lmdb/color-20-80/train_db"
    batch_size: 100
    backend: LMDB
  }
}
layer {
  name: "conv1"
  type: "Convolution"
  bottom: "data"
  top: "conv1"
  param {
    lr_mult: 1
    decay_mult: 1
  }
  param {
    lr_mult: 2
    decay_mult: 0
  }
  convolution_param {
    num_output: 96
    kernel_size: 11
    stride: 4
    weight_filler {
      type: "gaussian"
      std: 0.01
    }
    bias_filler {
      type: "constant"
      value: 0
    }
  }
}
layer {
  name: "relu1"
  type: "ReLU"
  bottom: "conv1"
  top: "conv1"
}
layer {
  name: "norm1"
  type: "LRN"
  bottom: "conv1"
  top: "norm1"
  lrn_param {
    local_size: 5
    alpha: 0.0001
    beta: 0.75
  }
}
layer {
  name: "pool1"
  type: "Pooling"
  bottom: "norm1"
  top: "pool1"
  pooling_param {
    pool: MAX
    kernel_size: 3
    stride: 2
  }
}
layer {
  name: "conv2"
  type: "Convolution"
  bottom: "pool1"
  top: "conv2"
  param {
    lr_mult: 1
    decay_mult: 1
  }
  param {
    lr_mult: 2
    decay_mult: 0
  }
  convolution_param {
    num_output: 256
    pad: 2
    kernel_size: 5
    group: 2
    weight_filler {
      type: "gaussian"
      std: 0.01
    }
    bias_filler {
      type: "constant"
      value: 0.1
    }
  }
}
layer {
  name: "relu2"
  type: "ReLU"
  bottom: "conv2"
  top: "conv2"
}
layer {
  name: "norm2"
  type: "LRN"
  bottom: "conv2"
  top: "norm2"
  lrn_param {
    local_size: 5
    alpha: 0.0001
    beta: 0.75
  }
}
layer {
  name: "pool2"
  type: "Pooling"
  bottom: "norm2"
  top: "pool2"
  pooling_param {
    pool: MAX
    kernel_size: 3
    stride: 2
  }
}
layer {
  name: "conv3"
  type: "Convolution"
  bottom: "pool2"
  top: "conv3"
  param {
    lr_mult: 1
    decay_mult: 1
  }
  param {
    lr_mult: 2
    decay_mult: 0
  }
  convolution_param {
    num_output: 384
    pad: 1
    kernel_size: 3
    weight_filler {
      type: "gaussian"
      std: 0.01
    }
    bias_filler {
      type: "constant"
      value: 0
    }
  }
}
layer {
  name: "relu3"
  type: "ReLU"
  bottom: "conv3"
  top: "conv3"
}
layer {
  name: "conv4"
  type: "Convolution"
  bottom: "conv3"
  top: "conv4"
  param {
    lr_mult: 1
    decay_mult: 1
  }
  param {
    lr_mult: 2
    decay_mult: 0
  }
  convolution_param {
    num_output: 384
    pad: 1
    kernel_size: 3
    group: 2
    weight_filler {
      type: "gaussian"
      std: 0.01
    }
    bias_filler {
      type: "constant"
      value: 0.1
    }
  }
}
layer {
  name: "relu4"
  type: "ReLU"
  bottom: "conv4"
  top: "conv4"
}
layer {
  name: "conv5"
  type: "Convolution"
  bottom: "conv4"
  top: "conv5"
  param {
    lr_mult: 1
    decay_mult: 1
  }
  param {
    lr_mult: 2
    decay_mult: 0
  }
  convolution_param {
    num_output: 256
    pad: 1
    kernel_size: 3
    group: 2
    weight_filler {
      type: "gaussian"
      std: 0.01
    }
    bias_filler {
      type: "constant"
      value: 0.1
    }
  }
}
layer {
  name: "relu5"
  type: "ReLU"
  bottom: "conv5"
  top: "conv5"
}
layer {
  name: "pool5"
  type: "Pooling"
  bottom: "conv5"
  top: "pool5"
  pooling_param {
    pool: MAX
    kernel_size: 3
    stride: 2
  }
}
layer {
  name: "fc6"
  type: "InnerProduct"
  bottom: "pool5"
  top: "fc6"
  param {
    lr_mult: 1
    decay_mult: 1
  }
  param {
    lr_mult: 2
    decay_mult: 0
  }
  inner_product_param {
    num_output: 4096
    weight_filler {
      type: "gaussian"
      std: 0.005
    }
    bias_filler {
      type: "constant"
      value: 0.1
    }
  }
}
layer {
  name: "relu6"
  type: "ReLU"
  bottom: "fc6"
  top: "fc6"
}
layer {
  name: "drop6"
  type: "Dropout"
  bottom: "fc6"
  top: "fc6"
  dropout_param {
    dropout_ratio: 0.5
  }
}
layer {
  name: "fc7"
  type: "InnerProduct"
  bottom: "fc6"
  top: "fc7"
  param {
    lr_mult: 1
    decay_mult: 1
  }
  param {
    lr_mult: 2
    decay_mult: 0
  }
  inner_product_param {
    num_output: 4096
    weight_filler {
      type: "gaussian"
      std: 0.005
    }
    bias_filler {
      type: "constant"
      value: 0.1
    }
  }
}
layer {
  name: "relu7"
  type: "ReLU"
  bottom: "fc7"
  top: "fc7"
}
layer {
  name: "drop7"
  type: "Dropout"
  bottom: "fc7"
  top: "fc7"
  dropout_param {
    dropout_ratio: 0.5
  }
}
layer {
  name: "fc8_plantvillage"
  type: "InnerProduct"
  bottom: "fc7"
  top: "fc8_plantvillage"
  param {
    lr_mult: 1
    decay_mult: 1
  }
  param {
    lr_mult: 2
    decay_mult: 0
  }
  inner_product_param {
    num_output: 38
    weight_filler {
      type: "gaussian"
      std: 0.01
    }
    bias_filler {
      type: "constant"
      value: 0
    }
  }
}
layer {
  name: "loss"
  type: "SoftmaxWithLoss"
  bottom: "fc8_plantvillage"
  bottom: "label"
  top: "loss"
}
I0321 02:56:55.619325  8987 layer_factory.hpp:77] Creating layer data
I0321 02:56:55.956897  8987 db_lmdb.cpp:35] Opened lmdb /home/ngani/Desktop/SYS866/Plant Classification/Experiment 1/dataset_plantVillage/lmdb/color-20-80/train_db
I0321 02:56:56.087625  8987 net.cpp:84] Creating Layer data
I0321 02:56:56.087661  8987 net.cpp:380] data -> data
I0321 02:56:56.087682  8987 net.cpp:380] data -> label
I0321 02:56:56.087716  8987 data_transformer.cpp:25] Loading mean file from: /home/ngani/Desktop/SYS866/Plant Classification/Experiment 1/dataset_plantVillage/lmdb/color-20-80/mean.binaryproto
I0321 02:56:56.371282  8987 data_layer.cpp:45] output data size: 100,3,227,227
I0321 02:56:56.469264  8987 net.cpp:122] Setting up data
I0321 02:56:56.469300  8987 net.cpp:129] Top shape: 100 3 227 227 (15458700)
I0321 02:56:56.469306  8987 net.cpp:129] Top shape: 100 (100)
I0321 02:56:56.469310  8987 net.cpp:137] Memory required for data: 61835200
I0321 02:56:56.469316  8987 layer_factory.hpp:77] Creating layer conv1
I0321 02:56:56.469328  8987 net.cpp:84] Creating Layer conv1
I0321 02:56:56.469333  8987 net.cpp:406] conv1 <- data
I0321 02:56:56.469341  8987 net.cpp:380] conv1 -> conv1
I0321 02:57:14.990844  8987 net.cpp:122] Setting up conv1
I0321 02:57:14.990934  8987 net.cpp:129] Top shape: 100 96 55 55 (29040000)
I0321 02:57:14.990947  8987 net.cpp:137] Memory required for data: 177995200
I0321 02:57:14.991011  8987 layer_factory.hpp:77] Creating layer relu1
I0321 02:57:14.991039  8987 net.cpp:84] Creating Layer relu1
I0321 02:57:14.991053  8987 net.cpp:406] relu1 <- conv1
I0321 02:57:14.991080  8987 net.cpp:367] relu1 -> conv1 (in-place)
I0321 02:57:14.999855  8987 net.cpp:122] Setting up relu1
I0321 02:57:14.999912  8987 net.cpp:129] Top shape: 100 96 55 55 (29040000)
I0321 02:57:14.999963  8987 net.cpp:137] Memory required for data: 294155200
I0321 02:57:14.999977  8987 layer_factory.hpp:77] Creating layer norm1
I0321 02:57:14.999994  8987 net.cpp:84] Creating Layer norm1
I0321 02:57:15.000005  8987 net.cpp:406] norm1 <- conv1
I0321 02:57:15.000021  8987 net.cpp:380] norm1 -> norm1
I0321 02:57:15.000900  8987 net.cpp:122] Setting up norm1
I0321 02:57:15.000928  8987 net.cpp:129] Top shape: 100 96 55 55 (29040000)
I0321 02:57:15.000939  8987 net.cpp:137] Memory required for data: 410315200
I0321 02:57:15.000949  8987 layer_factory.hpp:77] Creating layer pool1
I0321 02:57:15.000964  8987 net.cpp:84] Creating Layer pool1
I0321 02:57:15.000975  8987 net.cpp:406] pool1 <- norm1
I0321 02:57:15.000988  8987 net.cpp:380] pool1 -> pool1
I0321 02:57:15.001045  8987 net.cpp:122] Setting up pool1
I0321 02:57:15.001060  8987 net.cpp:129] Top shape: 100 96 27 27 (6998400)
I0321 02:57:15.001070  8987 net.cpp:137] Memory required for data: 438308800
I0321 02:57:15.001080  8987 layer_factory.hpp:77] Creating layer conv2
I0321 02:57:15.001114  8987 net.cpp:84] Creating Layer conv2
I0321 02:57:15.001124  8987 net.cpp:406] conv2 <- pool1
I0321 02:57:15.001137  8987 net.cpp:380] conv2 -> conv2
I0321 02:57:15.012809  8987 net.cpp:122] Setting up conv2
I0321 02:57:15.012856  8987 net.cpp:129] Top shape: 100 256 27 27 (18662400)
I0321 02:57:15.012866  8987 net.cpp:137] Memory required for data: 512958400
I0321 02:57:15.012888  8987 layer_factory.hpp:77] Creating layer relu2
I0321 02:57:15.012903  8987 net.cpp:84] Creating Layer relu2
I0321 02:57:15.012914  8987 net.cpp:406] relu2 <- conv2
I0321 02:57:15.012928  8987 net.cpp:367] relu2 -> conv2 (in-place)
I0321 02:57:15.013705  8987 net.cpp:122] Setting up relu2
I0321 02:57:15.013734  8987 net.cpp:129] Top shape: 100 256 27 27 (18662400)
I0321 02:57:15.013744  8987 net.cpp:137] Memory required for data: 587608000
I0321 02:57:15.013754  8987 layer_factory.hpp:77] Creating layer norm2
I0321 02:57:15.013768  8987 net.cpp:84] Creating Layer norm2
I0321 02:57:15.013778  8987 net.cpp:406] norm2 <- conv2
I0321 02:57:15.013792  8987 net.cpp:380] norm2 -> norm2
I0321 02:57:15.014370  8987 net.cpp:122] Setting up norm2
I0321 02:57:15.014392  8987 net.cpp:129] Top shape: 100 256 27 27 (18662400)
I0321 02:57:15.014402  8987 net.cpp:137] Memory required for data: 662257600
I0321 02:57:15.014412  8987 layer_factory.hpp:77] Creating layer pool2
I0321 02:57:15.014425  8987 net.cpp:84] Creating Layer pool2
I0321 02:57:15.014436  8987 net.cpp:406] pool2 <- norm2
I0321 02:57:15.014448  8987 net.cpp:380] pool2 -> pool2
I0321 02:57:15.014499  8987 net.cpp:122] Setting up pool2
I0321 02:57:15.014514  8987 net.cpp:129] Top shape: 100 256 13 13 (4326400)
I0321 02:57:15.014523  8987 net.cpp:137] Memory required for data: 679563200
I0321 02:57:15.014533  8987 layer_factory.hpp:77] Creating layer conv3
I0321 02:57:15.014549  8987 net.cpp:84] Creating Layer conv3
I0321 02:57:15.014559  8987 net.cpp:406] conv3 <- pool2
I0321 02:57:15.014571  8987 net.cpp:380] conv3 -> conv3
I0321 02:57:15.030789  8987 net.cpp:122] Setting up conv3
I0321 02:57:15.030915  8987 net.cpp:129] Top shape: 100 384 13 13 (6489600)
I0321 02:57:15.030927  8987 net.cpp:137] Memory required for data: 705521600
I0321 02:57:15.030952  8987 layer_factory.hpp:77] Creating layer relu3
I0321 02:57:15.030967  8987 net.cpp:84] Creating Layer relu3
I0321 02:57:15.030975  8987 net.cpp:406] relu3 <- conv3
I0321 02:57:15.030984  8987 net.cpp:367] relu3 -> conv3 (in-place)
I0321 02:57:15.031502  8987 net.cpp:122] Setting up relu3
I0321 02:57:15.031515  8987 net.cpp:129] Top shape: 100 384 13 13 (6489600)
I0321 02:57:15.031522  8987 net.cpp:137] Memory required for data: 731480000
I0321 02:57:15.031527  8987 layer_factory.hpp:77] Creating layer conv4
I0321 02:57:15.031540  8987 net.cpp:84] Creating Layer conv4
I0321 02:57:15.031546  8987 net.cpp:406] conv4 <- conv3
I0321 02:57:15.031574  8987 net.cpp:380] conv4 -> conv4
I0321 02:57:15.041373  8987 net.cpp:122] Setting up conv4
I0321 02:57:15.041469  8987 net.cpp:129] Top shape: 100 384 13 13 (6489600)
I0321 02:57:15.041481  8987 net.cpp:137] Memory required for data: 757438400
I0321 02:57:15.041503  8987 layer_factory.hpp:77] Creating layer relu4
I0321 02:57:15.041522  8987 net.cpp:84] Creating Layer relu4
I0321 02:57:15.041532  8987 net.cpp:406] relu4 <- conv4
I0321 02:57:15.041546  8987 net.cpp:367] relu4 -> conv4 (in-place)
I0321 02:57:15.042057  8987 net.cpp:122] Setting up relu4
I0321 02:57:15.042073  8987 net.cpp:129] Top shape: 100 384 13 13 (6489600)
I0321 02:57:15.042078  8987 net.cpp:137] Memory required for data: 783396800
I0321 02:57:15.042095  8987 layer_factory.hpp:77] Creating layer conv5
I0321 02:57:15.042117  8987 net.cpp:84] Creating Layer conv5
I0321 02:57:15.042125  8987 net.cpp:406] conv5 <- conv4
I0321 02:57:15.042135  8987 net.cpp:380] conv5 -> conv5
I0321 02:57:15.050316  8987 net.cpp:122] Setting up conv5
I0321 02:57:15.050343  8987 net.cpp:129] Top shape: 100 256 13 13 (4326400)
I0321 02:57:15.050348  8987 net.cpp:137] Memory required for data: 800702400
I0321 02:57:15.050357  8987 layer_factory.hpp:77] Creating layer relu5
I0321 02:57:15.050382  8987 net.cpp:84] Creating Layer relu5
I0321 02:57:15.050387  8987 net.cpp:406] relu5 <- conv5
I0321 02:57:15.050393  8987 net.cpp:367] relu5 -> conv5 (in-place)
I0321 02:57:15.050814  8987 net.cpp:122] Setting up relu5
I0321 02:57:15.050827  8987 net.cpp:129] Top shape: 100 256 13 13 (4326400)
I0321 02:57:15.050832  8987 net.cpp:137] Memory required for data: 818008000
I0321 02:57:15.050835  8987 layer_factory.hpp:77] Creating layer pool5
I0321 02:57:15.050842  8987 net.cpp:84] Creating Layer pool5
I0321 02:57:15.050845  8987 net.cpp:406] pool5 <- conv5
I0321 02:57:15.050853  8987 net.cpp:380] pool5 -> pool5
I0321 02:57:15.050887  8987 net.cpp:122] Setting up pool5
I0321 02:57:15.050894  8987 net.cpp:129] Top shape: 100 256 6 6 (921600)
I0321 02:57:15.050899  8987 net.cpp:137] Memory required for data: 821694400
I0321 02:57:15.050902  8987 layer_factory.hpp:77] Creating layer fc6
I0321 02:57:15.050909  8987 net.cpp:84] Creating Layer fc6
I0321 02:57:15.050915  8987 net.cpp:406] fc6 <- pool5
I0321 02:57:15.050920  8987 net.cpp:380] fc6 -> fc6
I0321 02:57:15.335970  8987 net.cpp:122] Setting up fc6
I0321 02:57:15.336010  8987 net.cpp:129] Top shape: 100 4096 (409600)
I0321 02:57:15.336015  8987 net.cpp:137] Memory required for data: 823332800
I0321 02:57:15.336045  8987 layer_factory.hpp:77] Creating layer relu6
I0321 02:57:15.336055  8987 net.cpp:84] Creating Layer relu6
I0321 02:57:15.336061  8987 net.cpp:406] relu6 <- fc6
I0321 02:57:15.336073  8987 net.cpp:367] relu6 -> fc6 (in-place)
I0321 02:57:15.336453  8987 net.cpp:122] Setting up relu6
I0321 02:57:15.336462  8987 net.cpp:129] Top shape: 100 4096 (409600)
I0321 02:57:15.336467  8987 net.cpp:137] Memory required for data: 824971200
I0321 02:57:15.336470  8987 layer_factory.hpp:77] Creating layer drop6
I0321 02:57:15.336477  8987 net.cpp:84] Creating Layer drop6
I0321 02:57:15.336480  8987 net.cpp:406] drop6 <- fc6
I0321 02:57:15.336488  8987 net.cpp:367] drop6 -> fc6 (in-place)
I0321 02:57:15.336510  8987 net.cpp:122] Setting up drop6
I0321 02:57:15.336517  8987 net.cpp:129] Top shape: 100 4096 (409600)
I0321 02:57:15.336521  8987 net.cpp:137] Memory required for data: 826609600
I0321 02:57:15.336524  8987 layer_factory.hpp:77] Creating layer fc7
I0321 02:57:15.336530  8987 net.cpp:84] Creating Layer fc7
I0321 02:57:15.336534  8987 net.cpp:406] fc7 <- fc6
I0321 02:57:15.336539  8987 net.cpp:380] fc7 -> fc7
I0321 02:57:15.452658  8987 net.cpp:122] Setting up fc7
I0321 02:57:15.452692  8987 net.cpp:129] Top shape: 100 4096 (409600)
I0321 02:57:15.452697  8987 net.cpp:137] Memory required for data: 828248000
I0321 02:57:15.452706  8987 layer_factory.hpp:77] Creating layer relu7
I0321 02:57:15.452714  8987 net.cpp:84] Creating Layer relu7
I0321 02:57:15.452718  8987 net.cpp:406] relu7 <- fc7
I0321 02:57:15.452754  8987 net.cpp:367] relu7 -> fc7 (in-place)
I0321 02:57:15.453317  8987 net.cpp:122] Setting up relu7
I0321 02:57:15.453330  8987 net.cpp:129] Top shape: 100 4096 (409600)
I0321 02:57:15.453347  8987 net.cpp:137] Memory required for data: 829886400
I0321 02:57:15.453351  8987 layer_factory.hpp:77] Creating layer drop7
I0321 02:57:15.453357  8987 net.cpp:84] Creating Layer drop7
I0321 02:57:15.453361  8987 net.cpp:406] drop7 <- fc7
I0321 02:57:15.453368  8987 net.cpp:367] drop7 -> fc7 (in-place)
I0321 02:57:15.453393  8987 net.cpp:122] Setting up drop7
I0321 02:57:15.453399  8987 net.cpp:129] Top shape: 100 4096 (409600)
I0321 02:57:15.453403  8987 net.cpp:137] Memory required for data: 831524800
I0321 02:57:15.453408  8987 layer_factory.hpp:77] Creating layer fc8_plantvillage
I0321 02:57:15.453418  8987 net.cpp:84] Creating Layer fc8_plantvillage
I0321 02:57:15.453421  8987 net.cpp:406] fc8_plantvillage <- fc7
I0321 02:57:15.453426  8987 net.cpp:380] fc8_plantvillage -> fc8_plantvillage
I0321 02:57:15.454398  8987 net.cpp:122] Setting up fc8_plantvillage
I0321 02:57:15.454407  8987 net.cpp:129] Top shape: 100 38 (3800)
I0321 02:57:15.454411  8987 net.cpp:137] Memory required for data: 831540000
I0321 02:57:15.454417  8987 layer_factory.hpp:77] Creating layer loss
I0321 02:57:15.454423  8987 net.cpp:84] Creating Layer loss
I0321 02:57:15.454427  8987 net.cpp:406] loss <- fc8_plantvillage
I0321 02:57:15.454432  8987 net.cpp:406] loss <- label
I0321 02:57:15.454437  8987 net.cpp:380] loss -> loss
I0321 02:57:15.454447  8987 layer_factory.hpp:77] Creating layer loss
…
I0321 02:57:15.455315  8987 net.cpp:294] The NetState phase (1) differed from the phase (0) specified by a rule in layer data
I0321 02:57:15.455404  8987 net.cpp:51] Initializing net from parameters: 
state {
  phase: TEST
}
layer {
  name: "data"
  type: "Data"
  top: "data"
  top: "label"
  include {
    phase: TEST
  }
  transform_param {
    crop_size: 227
    mean_file: "/home/ngani/Desktop/SYS866/Plant Classification/Experiment 1/dataset_plantVillage/lmdb/color-20-80/mean.binaryproto"
  }
  data_param {
    source: "/home/ngani/Desktop/SYS866/Plant Classification/Experiment 1/dataset_plantVillage/lmdb/color-20-80/test_db"
    batch_size: 100
    backend: LMDB
  }
}
layer {
  name: "conv1"
  type: "Convolution"
  bottom: "data"
  top: "conv1"
  param {
    lr_mult: 1
    decay_mult: 1
  }
  param {
    lr_mult: 2
    decay_mult: 0
  }
  convolution_param {
    num_output: 96
    kernel_size: 11
    stride: 4
    weight_filler {
      type: "gaussian"
      std: 0.01
    }
    bias_filler {
      type: "constant"
      value: 0
    }
  }
}
layer {
  name: "relu1"
  type: "ReLU"
  bottom: "conv1"
  top: "conv1"
}
layer {
  name: "norm1"
  type: "LRN"
  bottom: "conv1"
  top: "norm1"
  lrn_param {
    local_size: 5
    alpha: 0.0001
    beta: 0.75
  }
}
layer {
  name: "pool1"
  type: "Pooling"
  bottom: "norm1"
  top: "pool1"
  pooling_param {
    pool: MAX
    kernel_size: 3
    stride: 2
  }
}
layer {
  name: "conv2"
  type: "Convolution"
  bottom: "pool1"
  top: "conv2"
  param {
    lr_mult: 1
    decay_mult: 1
  }
  param {
    lr_mult: 2
    decay_mult: 0
  }
  convolution_param {
    num_output: 256
    pad: 2
    kernel_size: 5
    group: 2
    weight_filler {
      type: "gaussian"
      std: 0.01
    }
    bias_filler {
      type: "constant"
      value: 0.1
    }
  }
}
layer {
  name: "relu2"
  type: "ReLU"
  bottom: "conv2"
  top: "conv2"
}
layer {
  name: "norm2"
  type: "LRN"
  bottom: "conv2"
  top: "norm2"
  lrn_param {
    local_size: 5
    alpha: 0.0001
    beta: 0.75
  }
}
layer {
  name: "pool2"
  type: "Pooling"
  bottom: "norm2"
  top: "pool2"
  pooling_param {
    pool: MAX
    kernel_size: 3
    stride: 2
  }
}
layer {
  name: "conv3"
  type: "Convolution"
  bottom: "pool2"
  top: "conv3"
  param {
    lr_mult: 1
    decay_mult: 1
  }
  param {
    lr_mult: 2
    decay_mult: 0
  }
  convolution_param {
    num_output: 384
    pad: 1
    kernel_size: 3
    weight_filler {
      type: "gaussian"
      std: 0.01
    }
    bias_filler {
      type: "constant"
      value: 0
    }
  }
}
layer {
  name: "relu3"
  type: "ReLU"
  bottom: "conv3"
  top: "conv3"
}
layer {
  name: "conv4"
  type: "Convolution"
  bottom: "conv3"
  top: "conv4"
  param {
    lr_mult: 1
    decay_mult: 1
  }
  param {
    lr_mult: 2
    decay_mult: 0
  }
  convolution_param {
    num_output: 384
    pad: 1
    kernel_size: 3
    group: 2
    weight_filler {
      type: "gaussian"
      std: 0.01
    }
    bias_filler {
      type: "constant"
      value: 0.1
    }
  }
}
layer {
  name: "relu4"
  type: "ReLU"
  bottom: "conv4"
  top: "conv4"
}
layer {
  name: "conv5"
  type: "Convolution"
  bottom: "conv4"
  top: "conv5"
  param {
    lr_mult: 1
    decay_mult: 1
  }
  param {
    lr_mult: 2
    decay_mult: 0
  }
  convolution_param {
    num_output: 256
    pad: 1
    kernel_size: 3
    group: 2
    weight_filler {
      type: "gaussian"
      std: 0.01
    }
    bias_filler {
      type: "constant"
      value: 0.1
    }
  }
}
layer {
  name: "relu5"
  type: "ReLU"
  bottom: "conv5"
  top: "conv5"
}
layer {
  name: "pool5"
  type: "Pooling"
  bottom: "conv5"
  top: "pool5"
  pooling_param {
    pool: MAX
    kernel_size: 3
    stride: 2
  }
}
layer {
  name: "fc6"
  type: "InnerProduct"
  bottom: "pool5"
  top: "fc6"
  param {
    lr_mult: 1
    decay_mult: 1
  }
  param {
    lr_mult: 2
    decay_mult: 0
  }
  inner_product_param {
    num_output: 4096
    weight_filler {
      type: "gaussian"
      std: 0.005
    }
    bias_filler {
      type: "constant"
      value: 0.1
    }
  }
}
layer {
  name: "relu6"
  type: "ReLU"
  bottom: "fc6"
  top: "fc6"
}
layer {
  name: "drop6"
  type: "Dropout"
  bottom: "fc6"
  top: "fc6"
  dropout_param {
    dropout_ratio: 0.5
  }
}
layer {
  name: "fc7"
  type: "InnerProduct"
  bottom: "fc6"
  top: "fc7"
  param {
    lr_mult: 1
    decay_mult: 1
  }
  param {
    lr_mult: 2
    decay_mult: 0
  }
  inner_product_param {
    num_output: 4096
    weight_filler {
      type: "gaussian"
      std: 0.005
    }
    bias_filler {
      type: "constant"
      value: 0.1
    }
  }
}
layer {
  name: "relu7"
  type: "ReLU"
  bottom: "fc7"
  top: "fc7"
}
layer {
  name: "drop7"
  type: "Dropout"
  bottom: "fc7"
  top: "fc7"
  dropout_param {
    dropout_ratio: 0.5
  }
}
layer {
  name: "fc8_plantvillage"
  type: "InnerProduct"
  bottom: "fc7"
  top: "fc8_plantvillage"
  param {
    lr_mult: 1
    decay_mult: 1
  }
  param {
    lr_mult: 2
    decay_mult: 0
  }
  inner_product_param {
    num_output: 38
    weight_filler {
      type: "gaussian"
      std: 0.01
    }
    bias_filler {
      type: "constant"
      value: 0
    }
  }
}
layer {
  name: "loss"
  type: "SoftmaxWithLoss"
  bottom: "fc8_plantvillage"
  bottom: "label"
  top: "loss"
}
layer {
  name: "accuracy"
  type: "Accuracy"
  bottom: "fc8_plantvillage"
  bottom: "label"
  top: "accuracy"
  include {
    phase: TEST
  }
}
I0321 02:57:15.455482  8987 layer_factory.hpp:77] Creating layer data
I0321 02:57:15.857110  8987 db_lmdb.cpp:35] Opened lmdb /home/ngani/Desktop/SYS866/Plant Classification/Experiment 1/dataset_plantVillage/lmdb/color-20-80/test_db
I0321 02:57:15.896839  8987 net.cpp:84] Creating Layer data
I0321 02:57:15.896930  8987 net.cpp:380] data -> data
I0321 02:57:15.896971  8987 net.cpp:380] data -> label
I0321 02:57:15.897012  8987 data_transformer.cpp:25] Loading mean file from: /home/ngani/Desktop/SYS866/Plant Classification/Experiment 1/dataset_plantVillage/lmdb/color-20-80/mean.binaryproto
I0321 02:57:15.906062  8987 data_layer.cpp:45] output data size: 100,3,227,227
I0321 02:57:16.030485  8987 net.cpp:122] Setting up data
I0321 02:57:16.030519  8987 net.cpp:129] Top shape: 100 3 227 227 (15458700)
I0321 02:57:16.030525  8987 net.cpp:129] Top shape: 100 (100)
I0321 02:57:16.030529  8987 net.cpp:137] Memory required for data: 61835200
I0321 02:57:16.030535  8987 layer_factory.hpp:77] Creating layer label_data_1_split
I0321 02:57:16.030545  8987 net.cpp:84] Creating Layer label_data_1_split
I0321 02:57:16.030550  8987 net.cpp:406] label_data_1_split <- label
I0321 02:57:16.030557  8987 net.cpp:380] label_data_1_split -> label_data_1_split_0
I0321 02:57:16.030565  8987 net.cpp:380] label_data_1_split -> label_data_1_split_1
I0321 02:57:16.030642  8987 net.cpp:122] Setting up label_data_1_split
I0321 02:57:16.030648  8987 net.cpp:129] Top shape: 100 (100)
I0321 02:57:16.030653  8987 net.cpp:129] Top shape: 100 (100)
I0321 02:57:16.030658  8987 net.cpp:137] Memory required for data: 61836000
I0321 02:57:16.030661  8987 layer_factory.hpp:77] Creating layer conv1
I0321 02:57:16.030689  8987 net.cpp:84] Creating Layer conv1
I0321 02:57:16.030694  8987 net.cpp:406] conv1 <- data
I0321 02:57:16.030699  8987 net.cpp:380] conv1 -> conv1
I0321 02:57:16.038676  8987 net.cpp:122] Setting up conv1
I0321 02:57:16.038703  8987 net.cpp:129] Top shape: 100 96 55 55 (29040000)
I0321 02:57:16.038708  8987 net.cpp:137] Memory required for data: 177996000
I0321 02:57:16.038719  8987 layer_factory.hpp:77] Creating layer relu1
I0321 02:57:16.038727  8987 net.cpp:84] Creating Layer relu1
I0321 02:57:16.038731  8987 net.cpp:406] relu1 <- conv1
I0321 02:57:16.038736  8987 net.cpp:367] relu1 -> conv1 (in-place)
I0321 02:57:16.039178  8987 net.cpp:122] Setting up relu1
I0321 02:57:16.039191  8987 net.cpp:129] Top shape: 100 96 55 55 (29040000)
I0321 02:57:16.039194  8987 net.cpp:137] Memory required for data: 294156000
I0321 02:57:16.039198  8987 layer_factory.hpp:77] Creating layer norm1
I0321 02:57:16.039206  8987 net.cpp:84] Creating Layer norm1
I0321 02:57:16.039211  8987 net.cpp:406] norm1 <- conv1
I0321 02:57:16.039216  8987 net.cpp:380] norm1 -> norm1
I0321 02:57:16.039573  8987 net.cpp:122] Setting up norm1
I0321 02:57:16.039584  8987 net.cpp:129] Top shape: 100 96 55 55 (29040000)
I0321 02:57:16.039588  8987 net.cpp:137] Memory required for data: 410316000
I0321 02:57:16.039600  8987 layer_factory.hpp:77] Creating layer pool1
I0321 02:57:16.039608  8987 net.cpp:84] Creating Layer pool1
I0321 02:57:16.039649  8987 net.cpp:406] pool1 <- norm1
I0321 02:57:16.039654  8987 net.cpp:380] pool1 -> pool1
I0321 02:57:16.039680  8987 net.cpp:122] Setting up pool1
I0321 02:57:16.039686  8987 net.cpp:129] Top shape: 100 96 27 27 (6998400)
I0321 02:57:16.039690  8987 net.cpp:137] Memory required for data: 438309600
I0321 02:57:16.039695  8987 layer_factory.hpp:77] Creating layer conv2
I0321 02:57:16.039702  8987 net.cpp:84] Creating Layer conv2
I0321 02:57:16.039707  8987 net.cpp:406] conv2 <- pool1
I0321 02:57:16.039712  8987 net.cpp:380] conv2 -> conv2
I0321 02:57:16.046998  8987 net.cpp:122] Setting up conv2
I0321 02:57:16.047031  8987 net.cpp:129] Top shape: 100 256 27 27 (18662400)
I0321 02:57:16.047035  8987 net.cpp:137] Memory required for data: 512959200
I0321 02:57:16.047046  8987 layer_factory.hpp:77] Creating layer relu2
I0321 02:57:16.047055  8987 net.cpp:84] Creating Layer relu2
I0321 02:57:16.047060  8987 net.cpp:406] relu2 <- conv2
I0321 02:57:16.047066  8987 net.cpp:367] relu2 -> conv2 (in-place)
I0321 02:57:16.047541  8987 net.cpp:122] Setting up relu2
I0321 02:57:16.047555  8987 net.cpp:129] Top shape: 100 256 27 27 (18662400)
I0321 02:57:16.047559  8987 net.cpp:137] Memory required for data: 587608800
I0321 02:57:16.047564  8987 layer_factory.hpp:77] Creating layer norm2
I0321 02:57:16.047574  8987 net.cpp:84] Creating Layer norm2
I0321 02:57:16.047581  8987 net.cpp:406] norm2 <- conv2
I0321 02:57:16.047590  8987 net.cpp:380] norm2 -> norm2
I0321 02:57:16.047930  8987 net.cpp:122] Setting up norm2
I0321 02:57:16.047940  8987 net.cpp:129] Top shape: 100 256 27 27 (18662400)
I0321 02:57:16.047945  8987 net.cpp:137] Memory required for data: 662258400
I0321 02:57:16.047948  8987 layer_factory.hpp:77] Creating layer pool2
I0321 02:57:16.047955  8987 net.cpp:84] Creating Layer pool2
I0321 02:57:16.047958  8987 net.cpp:406] pool2 <- norm2
I0321 02:57:16.047963  8987 net.cpp:380] pool2 -> pool2
I0321 02:57:16.047991  8987 net.cpp:122] Setting up pool2
I0321 02:57:16.047997  8987 net.cpp:129] Top shape: 100 256 13 13 (4326400)
I0321 02:57:16.048002  8987 net.cpp:137] Memory required for data: 679564000
I0321 02:57:16.048005  8987 layer_factory.hpp:77] Creating layer conv3
I0321 02:57:16.048014  8987 net.cpp:84] Creating Layer conv3
I0321 02:57:16.048019  8987 net.cpp:406] conv3 <- pool2
I0321 02:57:16.048025  8987 net.cpp:380] conv3 -> conv3
I0321 02:57:16.058184  8987 net.cpp:122] Setting up conv3
I0321 02:57:16.058275  8987 net.cpp:129] Top shape: 100 384 13 13 (6489600)
I0321 02:57:16.058284  8987 net.cpp:137] Memory required for data: 705522400
I0321 02:57:16.058307  8987 layer_factory.hpp:77] Creating layer relu3
I0321 02:57:16.058326  8987 net.cpp:84] Creating Layer relu3
I0321 02:57:16.058333  8987 net.cpp:406] relu3 <- conv3
I0321 02:57:16.058342  8987 net.cpp:367] relu3 -> conv3 (in-place)
I0321 02:57:16.059046  8987 net.cpp:122] Setting up relu3
I0321 02:57:16.059067  8987 net.cpp:129] Top shape: 100 384 13 13 (6489600)
I0321 02:57:16.059072  8987 net.cpp:137] Memory required for data: 731480800
I0321 02:57:16.059078  8987 layer_factory.hpp:77] Creating layer conv4
I0321 02:57:16.059098  8987 net.cpp:84] Creating Layer conv4
I0321 02:57:16.059103  8987 net.cpp:406] conv4 <- conv3
I0321 02:57:16.059109  8987 net.cpp:380] conv4 -> conv4
I0321 02:57:16.066723  8987 net.cpp:122] Setting up conv4
I0321 02:57:16.066778  8987 net.cpp:129] Top shape: 100 384 13 13 (6489600)
I0321 02:57:16.066783  8987 net.cpp:137] Memory required for data: 757439200
I0321 02:57:16.066797  8987 layer_factory.hpp:77] Creating layer relu4
I0321 02:57:16.066809  8987 net.cpp:84] Creating Layer relu4
I0321 02:57:16.066817  8987 net.cpp:406] relu4 <- conv4
I0321 02:57:16.066825  8987 net.cpp:367] relu4 -> conv4 (in-place)
I0321 02:57:16.067288  8987 net.cpp:122] Setting up relu4
I0321 02:57:16.067312  8987 net.cpp:129] Top shape: 100 384 13 13 (6489600)
I0321 02:57:16.067337  8987 net.cpp:137] Memory required for data: 783397600
I0321 02:57:16.067342  8987 layer_factory.hpp:77] Creating layer conv5
I0321 02:57:16.067394  8987 net.cpp:84] Creating Layer conv5
I0321 02:57:16.067417  8987 net.cpp:406] conv5 <- conv4
I0321 02:57:16.067430  8987 net.cpp:380] conv5 -> conv5
I0321 02:57:16.074584  8987 net.cpp:122] Setting up conv5
I0321 02:57:16.074632  8987 net.cpp:129] Top shape: 100 256 13 13 (4326400)
I0321 02:57:16.074637  8987 net.cpp:137] Memory required for data: 800703200
I0321 02:57:16.074653  8987 layer_factory.hpp:77] Creating layer relu5
I0321 02:57:16.074662  8987 net.cpp:84] Creating Layer relu5
I0321 02:57:16.074668  8987 net.cpp:406] relu5 <- conv5
I0321 02:57:16.074697  8987 net.cpp:367] relu5 -> conv5 (in-place)
I0321 02:57:16.075178  8987 net.cpp:122] Setting up relu5
I0321 02:57:16.075193  8987 net.cpp:129] Top shape: 100 256 13 13 (4326400)
I0321 02:57:16.075198  8987 net.cpp:137] Memory required for data: 818008800
I0321 02:57:16.075202  8987 layer_factory.hpp:77] Creating layer pool5
I0321 02:57:16.075210  8987 net.cpp:84] Creating Layer pool5
I0321 02:57:16.075215  8987 net.cpp:406] pool5 <- conv5
I0321 02:57:16.075229  8987 net.cpp:380] pool5 -> pool5
I0321 02:57:16.075279  8987 net.cpp:122] Setting up pool5
I0321 02:57:16.075289  8987 net.cpp:129] Top shape: 100 256 6 6 (921600)
I0321 02:57:16.075292  8987 net.cpp:137] Memory required for data: 821695200
I0321 02:57:16.075296  8987 layer_factory.hpp:77] Creating layer fc6
I0321 02:57:16.075304  8987 net.cpp:84] Creating Layer fc6
I0321 02:57:16.075307  8987 net.cpp:406] fc6 <- pool5
I0321 02:57:16.075314  8987 net.cpp:380] fc6 -> fc6
I0321 02:57:16.377998  8987 net.cpp:122] Setting up fc6
I0321 02:57:16.378036  8987 net.cpp:129] Top shape: 100 4096 (409600)
I0321 02:57:16.378041  8987 net.cpp:137] Memory required for data: 823333600
I0321 02:57:16.378051  8987 layer_factory.hpp:77] Creating layer relu6
I0321 02:57:16.378059  8987 net.cpp:84] Creating Layer relu6
I0321 02:57:16.378064  8987 net.cpp:406] relu6 <- fc6
I0321 02:57:16.378070  8987 net.cpp:367] relu6 -> fc6 (in-place)
I0321 02:57:16.378607  8987 net.cpp:122] Setting up relu6
I0321 02:57:16.378618  8987 net.cpp:129] Top shape: 100 4096 (409600)
I0321 02:57:16.378623  8987 net.cpp:137] Memory required for data: 824972000
I0321 02:57:16.378626  8987 layer_factory.hpp:77] Creating layer drop6
I0321 02:57:16.378633  8987 net.cpp:84] Creating Layer drop6
I0321 02:57:16.378638  8987 net.cpp:406] drop6 <- fc6
I0321 02:57:16.378645  8987 net.cpp:367] drop6 -> fc6 (in-place)
I0321 02:57:16.378666  8987 net.cpp:122] Setting up drop6
I0321 02:57:16.378672  8987 net.cpp:129] Top shape: 100 4096 (409600)
I0321 02:57:16.378676  8987 net.cpp:137] Memory required for data: 826610400
I0321 02:57:16.378680  8987 layer_factory.hpp:77] Creating layer fc7
I0321 02:57:16.378687  8987 net.cpp:84] Creating Layer fc7
I0321 02:57:16.378691  8987 net.cpp:406] fc7 <- fc6
I0321 02:57:16.378698  8987 net.cpp:380] fc7 -> fc7
I0321 02:57:16.492269  8987 net.cpp:122] Setting up fc7
I0321 02:57:16.492313  8987 net.cpp:129] Top shape: 100 4096 (409600)
I0321 02:57:16.492318  8987 net.cpp:137] Memory required for data: 828248800
I0321 02:57:16.492329  8987 layer_factory.hpp:77] Creating layer relu7
I0321 02:57:16.492338  8987 net.cpp:84] Creating Layer relu7
I0321 02:57:16.492343  8987 net.cpp:406] relu7 <- fc7
I0321 02:57:16.492352  8987 net.cpp:367] relu7 -> fc7 (in-place)
I0321 02:57:16.492751  8987 net.cpp:122] Setting up relu7
I0321 02:57:16.492761  8987 net.cpp:129] Top shape: 100 4096 (409600)
I0321 02:57:16.492765  8987 net.cpp:137] Memory required for data: 829887200
I0321 02:57:16.492769  8987 layer_factory.hpp:77] Creating layer drop7
I0321 02:57:16.492776  8987 net.cpp:84] Creating Layer drop7
I0321 02:57:16.492780  8987 net.cpp:406] drop7 <- fc7
I0321 02:57:16.492785  8987 net.cpp:367] drop7 -> fc7 (in-place)
I0321 02:57:16.492806  8987 net.cpp:122] Setting up drop7
I0321 02:57:16.492811  8987 net.cpp:129] Top shape: 100 4096 (409600)
I0321 02:57:16.492815  8987 net.cpp:137] Memory required for data: 831525600
I0321 02:57:16.492828  8987 layer_factory.hpp:77] Creating layer fc8_plantvillage
I0321 02:57:16.492838  8987 net.cpp:84] Creating Layer fc8_plantvillage
I0321 02:57:16.492857  8987 net.cpp:406] fc8_plantvillage <- fc7
I0321 02:57:16.492866  8987 net.cpp:380] fc8_plantvillage -> fc8_plantvillage
I0321 02:57:16.493901  8987 net.cpp:122] Setting up fc8_plantvillage
I0321 02:57:16.493911  8987 net.cpp:129] Top shape: 100 38 (3800)
I0321 02:57:16.493914  8987 net.cpp:137] Memory required for data: 831540800
I0321 02:57:16.493921  8987 layer_factory.hpp:77] Creating layer fc8_plantvillage_fc8_plantvillage_0_split
I0321 02:57:16.493927  8987 net.cpp:84] Creating Layer fc8_plantvillage_fc8_plantvillage_0_split
I0321 02:57:16.493930  8987 net.cpp:406] fc8_plantvillage_fc8_plantvillage_0_split <- fc8_plantvillage
I0321 02:57:16.493937  8987 net.cpp:380] fc8_plantvillage_fc8_plantvillage_0_split -> fc8_plantvillage_fc8_plantvillage_0_split_0
I0321 02:57:16.493944  8987 net.cpp:380] fc8_plantvillage_fc8_plantvillage_0_split -> fc8_plantvillage_fc8_plantvillage_0_split_1
I0321 02:57:16.493970  8987 net.cpp:122] Setting up fc8_plantvillage_fc8_plantvillage_0_split
I0321 02:57:16.493976  8987 net.cpp:129] Top shape: 100 38 (3800)
I0321 02:57:16.493981  8987 net.cpp:129] Top shape: 100 38 (3800)
I0321 02:57:16.493984  8987 net.cpp:137] Memory required for data: 831571200
I0321 02:57:16.493988  8987 layer_factory.hpp:77] Creating layer loss
I0321 02:57:16.493994  8987 net.cpp:84] Creating Layer loss
I0321 02:57:16.493999  8987 net.cpp:406] loss <- fc8_plantvillage_fc8_plantvillage_0_split_0
I0321 02:57:16.494004  8987 net.cpp:406] loss <- label_data_1_split_0
I0321 02:57:16.494009  8987 net.cpp:380] loss -> loss
…
